system_ext/etc/obrain/rad_model/rad.tflite (tflite, 16832 bytes, 9 tensors)

sequential/dense_1/BiasAdd/ReadVariableOp f4 [20]
0.50567186 -0.14965141 0.7421819 1.9904381 0.6466828 0.5052108 0.23721391 -0.23280087
0.48869452 0.3213553 -0.8686472 -2.452591 -0.47079664 -0.39883807 0.14704391 -0.09627126
-0.48728842 -0.15120691 0.27623814 0.1991838
00000000: b673 013f 383e 19be a2ff 3d3f adc6 fe3f
00000010: 018d 253f 7f55 013f 34e8 723e 5a63 6ebe
00000020: 2b36 fa3e af88 a43e aa5f 5ebf 40f7 1cc0
00000030: 420c f1be 8134 ccbe ae92 163e de29 c5bd
00000040: de7d f9be fcd5 1abe 166f 8d3e d7f6 4b3e

sequential/dense_2/BiasAdd/ReadVariableOp f4 [10]
-0.0647238 -0.250159 0.35418165 0.43547398 -0.022440216 -0.11138499 -0.40385133 1.1399257
0.601133 0.30040017
00000000: e98d 84bd d714 80be 4c57 b53e 72f6 de3e
00000010: 8bd4 b7bc d01d e4bd 9ac5 cebe 16e9 913f
00000020: dae3 193f 0dce 993e

sequential/dense_3/BiasAdd/ReadVariableOp f4 [5]
-0.90560186 1.7186188 1.1374999 2.5832794 1.9253987
00000000: 86d5 67bf b3fb db3f 9999 913f 7354 2540
00000010: 7773 f63f

sequential/dense/BiasAdd/ReadVariableOp f4 [40]
0.179222 -0.8851454 0.14822952 0.56750804 0.24059723 0.798059 -0.30611137 0.6769624
0.23714088 1.1123042 -0.2719214 0.427391 0.09086749 0.03644043 0.105875716 0.08981801
-0.7276452 -0.40783903 0.46086803 -0.79889876 -0.03864706 0.0038569688 1.0312431 -0.31015077
0.5264964 -0.5443774 -0.24154113 1.1409189 -0.010814354 -0.18880504 0.113560334 -0.23110634
-0.11383503 0.25089344 0.28292605 0.2828872 -0.8577563 0.22205462 -0.19150844 1.4732509
00000000: f985 373e e498 62bf 7bc9 173e 3548 113f
00000010: 1f5f 763e 984d 4c3f a1ba 9cbe 684d 2d3f
00000020: 0fd5 723e fc5f 8e3f 4839 8bbe fed2 da3e
00000030: bc18 ba3d 8f42 153d 5ed5 d83d 81f2 b73d
00000040: f546 3abf 47d0 d0be e5f6 eb3e a184 4cbf
00000050: 614c 1ebd 33c5 7c3b c6ff 833f 15cc 9ebe
00000060: 78c8 063f 515c 0bbf 8f56 77be a109 923f
00000070: b02e 31bc 1c56 41be 5292 e83d 24a7 6cbe
00000080: 5722 e9bd 1b75 803e afdb 903e 97d6 903e
00000090: eb95 5bbf 4962 633e ca1a 44be 7c93 bc3f

sequential/dense/MatMul f4 [40, 59]
0.082396425 -2.6043913 -2.7595832 -10.534879 -2.3112488 2.3759701 1.2138805 -0.1389076
2.1525984 0.78778243 -2.254534 -6.0083947 0.7137897 -0.08883325 -2.4670339 -1.3891034
1.2138127 -3.9533849 -5.999723 -4.9345827 -3.8698006 -1.5498505 -6.964662 -2.993172
-1.2278955 2.314606 0.11340679 -0.5512328 -0.57054144 -0.21843652 -3.619559 1.3348407
1.6058311 0.033308774 -0.02915048 0.15005232 -0.03976665 -0.0053673615 -0.20308216 -0.13677877
2.1104114 1.4144167 0.40083092 -0.5019393 0.583774 -1.1588179 0.54954076 -3.7928648
2.9972267 0.080343835 -4.617811 -0.33424845 -1.5553975 -0.059266474 -0.10936989 0.18991694
0.07507131 0.27573356 0.13343838 -0.0006935141 -12.35667 -1.0557508 -0.3560375 -12.26509
-14.477254 0.8694617 -10.612587 -17.30122 -1.927676 -10.015967 -15.7704115 -1.1733758
-2.13054 -0.037449427 0.104141496 -2.1277273 -4.8634596 4.8853645 -3.5849771 -7.146264
-3.3526692 -5.08366 -5.1868124 -2.8355553 3.0004306 0.321748 -0.93329114 1.9042737
6.2212157 -6.892844 4.2268615 7.8281255 -0.12934844 0.12970142 -0.10702618 -0.02747427
0.037496828 -0.028519012 -0.17439848 0.8419247 4.760063 8.23054 -3.9564254 -8.489646
-3.2184885 0.36308423 -0.9029622 -0.4395433 2.3321953 -0.8453406 0.71507025 -10.39207
-0.1265377 0.07597395 -0.002758111 -0.2317441 -0.045840245 -0.11483668 -0.47522157 4.240016
3.9119444 2.6854675 2.795666 2.060785 3.165504 -0.73345566 0.37731847 -1.3078594
-8.302855 -9.809327 -0.4671269 4.0724854 2.102883 0.55894756 3.238431 4.266571
2.4704044 0.37769437 2.314478 -0.13201256 -4.133197 -5.0221553 0.982847 -2.1099317
-2.794437 -1.2814176 -1.768209 -1.6235735 0.31677347 -0.5969568 -0.48615268 0.079733476
-0.17601654 -0.032179777 -0.014227199 0.046343178 -0.28344187 -0.051876098 -1.0992422 -5.033335
-3.9717999 2.9950378 3.9830582 -1.8073952 -2.9643857 6.2251453 0.57958835 6.931725
5.0101943 -0.87537944 6.754131 -0.07590114 0.24635118 0.24296927 0.15685658 -0.44362316
0.12571059 -0.015349201 -3.3870733 -9.70155 -12.320048 -2.0438428 2.7703116 -2.843931
-0.22580844 3.1825051 -1.5809215 5.0440664 3.1445513 -2.413737 -1.130831 -4.7627583
-1.8048908 0.65263647 -9.0078335 -16.899355 -4.3203783 -8.343439 -2.0129895 -2.2477865
4.195403 -2.4149404 2.8935382 0.6846753 1.116126 -3.2279367 -3.4725122 -2.515947
-3.691284 -8.44011 0.0723905 0.051007763 -0.05322482 -0.17643857 -0.10320442 0.07565394
-0.0763285 2.4318612 -0.5803631 -1.153796 -0.81360507 -0.27527744 -8.706473 -7.2205596
5.708275 1.1619 1.7726414 3.048159 -0.60484916 -0.39726275 -0.0015415862 -0.0069299527
-0.0928315 0.026386082 0.20594756 0.0038377433 0.15603752 4.114497 -0.8816789 1.7974424
6.1625376 -3.3396537 -0.49370298 2.531347 -3.6243503 -0.71680045 4.5508027 -3.9422982
-0.86807364 0.64319456 -0.7156085 0.22607426 1.8026828 1.428942 2.1283164 5.2230344
00000000: 75bf a83d 59ae 26c0 039d 30c0 dd8e 28c1
00000010: 80eb 13c0 e50f 1840 7060 9b3f cb3d 0ebe
00000020: 2cc4 0940 1cac 493f 494a 10c0 c544 c0c0
00000030: ecba 363f 35ee b5bd e2e3 1dc0 24ce b1bf
00000040: 375e 9b3f 4204 7dc0 bbfd bfc0 1ae8 9dc0
00000050: d0aa 77c0 8061 c6bf 83de dec0 2190 3fc0
00000060: ae2b 9dbf 8122 1440 d241 e83d 981d 0dbf
00000070: 010f 12bf d3ad 5fbe dba6 67c0 0fdc aa3f
00000080: e08b cd3f c86e 083d fdcc eebc 51a7 193e
00000090: 5be2 22bd b1e0 afbb c5f4 4fbe bc0f 0cbe
000000a0: fb10 0740 9b0b b53f b639 cd3e 187f 00bf
000000b0: 3672 153f 2554 94bf b4ae 0c3f 4cbe 72c0
000000c0: 90d2 3f40 4f8b a43d 1cc5 93c0 9d22 abbe
000000d0: 4417 c7bf 67c1 72bd 52fd dfbd 9679 423e
000000e0: fdbe 993d f32c 8d3e 12a4 083e f2cc 35ba
000000f0: ecb4 45c1 d822 87bf 8c4a b6be cf3d 44c1
00000100: d5a2 67c1 0b95 5e3f 28cd 29c1 e668 8ac1
00000110: 16be f6bf 6741 20c1 9b53 7cc1 2e31 96bf
00000120: c45a 08c0 9264 19bd 2348 d53d af2c 08c0
00000130: 76a1 9bc0 e854 9c40 4470 65c0 32ae e4c0
00000140: 2292 56c0 58ad a2c0 5efa a5c0 bd79 35c0
00000150: 0e07 4040 27bc a43e 2bec 6ebf 3ebf f33f
00000160: 3314 c740 2e92 dcc0 7342 8740 0180 fa40
00000170: eb73 04be 73d0 043e 8b30 dbbd b811 e1bc
00000180: 4696 193d b4a0 e9bc 8495 32be 6188 573f
00000190: 7052 9840 4bb0 0341 1336 7dc0 97d5 07c1
000001a0: b7fb 4dc0 2de6 b93e 8828 67bf d20b e1be
000001b0: b042 1540 3e68 58bf d80e 373f eb45 26c1
000001c0: 1993 01be 3b98 9b3d 6dc1 34bb 534e 6dbe
000001d0: fbc2 3bbd 7e2f ebbd 3e50 f3be 36ae 8740
000001e0: 4c5d 7a40 b3de 2b40 31ec 3240 e7e3 0340
000001f0: 9e97 4a40 c0c3 3bbf e32f c13e f067 a7bf
00000200: 7ed8 04c1 01f3 1cc1 422b efbe cd51 8240
00000210: a395 0640 3017 0f3f 7442 4f40 c087 8840
00000220: 1b1b 1e40 2861 c13e 6820 1440 4d2e 07be
00000230: 2643 84c0 7fb5 a0c0 dc9b 7b3f 1f09 07c0
00000240: 0ed8 32c0 7e05 a4bf ac54 e2bf 42d1 cfbf
00000250: 2230 a23e 29d2 18bf 01e9 f8be 4e4b a33d
00000260: ae3d 34be f1ce 03bd 3319 69bc 58d2 3d3d
00000270: 4b1f 91be 087c 54bd f8b3 8cbf 1511 a1c0
00000280: f831 7ec0 b3ae 3f40 6dea 7e40 ba58 e7bf
00000290: 7fb8 3dc0 6434 c740 e75f 143f b1d0 dd40
000002a0: 8353 a040 de18 60bf d721 d840 0f72 9bbd
000002b0: 7c43 7c3e f0cc 783e 039f 203e 9322 e3be
000002c0: 47ba 003e 377b 7bbc cfc5 58c0 8c39 1bc1
000002d0: eb1e 45c1 52ce 02c0 c94c 3140 f702 36c0
000002e0: 543a 67be 2aae 4b40 a35b cabf fe68 a140
000002f0: 5440 4940 ab7a 1ac0 12bf 90bf 8468 98c0
00000300: a906 e7bf 2f13 273f 1620 10c1 e131 87c1
00000310: 8a40 8ac0 ba7e 05c1 d2d4 00c0 bcdb 0fc0
00000320: be40 8640 628e 1ac0 bb2f 3940 e146 2f3f
00000330: 37dd 8e3f 8496 4ec0 a43d 5ec0 4705 21c0
00000340: ff3d 6cc0 b10a 07c1 7841 943d 84ed 503d
00000350: 4502 5abd 50ac 34be d75c d3bd 74f0 9a3d
00000360: 1e52 9cbd 9da3 1b40 ad92 14bf 96af 93bf
00000370: 6c48 50bf 2af1 8cbe b74d 0bc1 d30e e7c0
00000380: 30aa b640 24b9 943f eae5 e23f 0915 4340
00000390: 65d7 1abf 0666 cbbe 0d0f caba a814 e3bb
000003a0: 711e bebd a027 d83c ebe3 523e a682 7b3b
000003b0: 4dc8 1f3e f6a9 8340 b5b5 61bf 9812 e63f
000003c0: 8233 c540 e3bc 55c0 a3c6 fcbe 9701 2240
000003d0: 5bf5 67c0 3c80 37bf 2da0 9140 9d4e 7cc0
000003e0: 133a 5ebf 66a8 243f 1e32 37bf 0380 673e
000003f0: 4fbe e63f 92e7 b63f 5636 0840 1923 a740

sequential/dense_1/MatMul f4 [20, 40]
-1.0520377 0.66498286 -0.702179 -0.5340979 -0.23449436 -0.29032764 -0.7090501 0.18803445
0.049893726 0.42759466 0.7885558 0.3625205 -0.3373617 -0.37438762 -0.46116704 -0.07786323
0.18222573 -0.8316655 0.17788757 0.3847715 0.030589117 0.38593754 -0.15492532 0.44037813
2.4085455 -0.08017016 0.13868336 0.07551527 -0.18666455 0.58750856 0.40774566 0.10357239
-0.16521735 -0.76811814 -0.9744347 -1.2232276 -0.43154427 2.1134388 -0.21061037 0.43589798
-0.3550026 0.38544428 -0.11793369 0.46926197 -0.050993305 -0.07745257 0.138238 0.13054027
-0.22915043 0.65933967 -0.30374128 -0.4311917 -0.12233069 -0.14790204 -0.3118987 -0.8134864
0.60309327 -0.8735417 2.2092254 0.15719052 0.031717848 -0.041269396 -0.0071740327 0.6683187
0.95525146 -0.2390634 0.006881379 0.945104 1.5310276 -0.81709445 0.21800235 -0.094638385
-0.4151421 -0.55157346 -0.36312625 -0.2205389 -0.42928714 3.3508575 -0.38258263 0.19496934
-0.8478348 -0.98216903 0.35439655 0.4619653 0.40416336 0.37432674 0.06425112 0.19633012
0.12932302 0.082481496 0.43913516 0.92077464 -0.0010989239 0.25921944 -0.29717898 0.3657062
0.0010299968 -1.3908223 0.16198817 -0.24971107 0.46623516 0.33633754 0.0083393855 -0.25739697
1.2200855 -0.17121854 -0.7033779 -0.6352575 -0.4716719 0.57041 -0.03808437 -0.028271103
-0.037625663 -0.08816048 -0.04667045 -0.121762216 -0.47949573 -0.68245363 0.6201816 1.4744405
0.5714864 -4.317681 0.591335 0.8795272 -0.2254723 2.2365453 0.17872563 0.37613547
-0.692012 0.38842767 -1.776057 -0.2686465 0.09942361 -0.2320794 0.40495417 -0.83663636
-0.5884134 -0.98011196 -0.1761286 -0.6317976 1.5448345 -0.766462 -1.3374729 -0.8085242
2.440889 -0.5406282 -0.30077353 -2.178334 1.2132666 -0.657974 -0.9587101 0.0037589143
-0.9693421 0.14438008 0.07571778 -0.10019791 -1.9196491 1.8186027 -0.8695274 0.78857154
0.17927924 0.6038788 -0.025299484 0.5057341 -0.20877603 -0.40977535 0.45781133 -0.06773347
-0.56615853 0.6349344 -0.38211003 0.033722427 -0.6295553 -0.18526408 0.0056756353 -1.0997796
0.38175258 -0.23155394 1.562931 -0.08041514 -0.29406375 0.36150187 0.3082768 0.30981544
1.6547892 -0.087358475 0.22786593 0.70633173 -0.061987143 -0.56382394 -0.6990632 0.002762082
0.3610953 -0.064579144 -0.038784754 0.083749935 0.17647277 -1.5098989 0.17225114 0.06412913
0.77066374 0.41894752 -1.3487803 0.5790649 -0.13491295 -1.0596862 0.016181437 0.1038944
0.13646798 -0.5905586 -0.89599025 -0.6349101 -0.75457525 -0.25655222 0.08619296 -0.71970385
-0.30417222 0.31669232 -2.2545428 -0.0043026176 0.28584853 0.28331825 -0.5236314 0.49015445
-0.88067234 -0.10163363 0.49391246 0.7981515 1.4921101 -0.14091395 0.3716029 -0.27386677
0.0781338 -0.5262477 0.3767691 0.10637262 -0.4109543 2.72684 -0.32511604 0.260376
-0.017068783 0.7717414 0.8496205 0.31863692 0.055458132 -0.36327752 -0.35214153 -0.033626683
0.08570999 0.37568712 0.105466776 0.012333141 0.27740946 0.4103552 -0.16326556 0.4560103
00000000: 2ca9 86bf 513c 2a3f 01c2 33bf a4ba 08bf
00000010: 4a1f 70be d3a5 94be 4f84 35bf 1a8c 403e
00000020: 5d5d 4c3d b0ed da3e cbde 493f 499c b93e
00000030: acba acbe bcaf bfbe 161e ecbe c276 9fbd
00000040: 6299 3a3e 08e8 54bf 2928 363e c500 c53e
00000050: 0796 fa3c 9b99 c53e bea4 1ebe 3e79 e13e
00000060: 9c25 1a40 4130 a4bd 0303 0e3e c0a7 9a3d
00000070: fe24 3fbe f666 163f 0ac4 d03e c31d d43d
00000080: bd2e 29be 64a3 44bf 8d74 79bf b992 9cbf
00000090: 5ff3 dcbe 9542 0740 3faa 57be 052e df3e
000000a0: e7c2 b5be f458 c53e 3887 f1bd 1b43 f03e
000000b0: 5bde 50bd 749f 9ebd 438e 0d3e 59ac 053e
000000c0: 69a6 6abe 7cca 283f fa83 9bbe 29c5 dcbe
000000d0: 8388 fabd a273 17be 30b1 9fbe a540 50bf
000000e0: 5264 1a3f 6ea0 5fbf f363 0d40 8df6 203e
000000f0: 93ea 013d 190a 29bd 2614 ebbb ef16 2b3f
00000100: 5c8b 743f 09cd 74be 317d e13b 56f2 713f
00000110: b6f8 c33f 1a2d 51bf 023c 5f3e c5d1 c1bd
00000120: 818d d4be eb33 0dbf afeb b9be f3d4 61be
00000130: 86cb dbbe 7374 5640 dfe1 c3be 0ba6 473e
00000140: b40b 59bf 6e6f 7bbf 7773 b53e b786 ec3e
00000150: 80ee ce3e c1a7 bf3e 1796 833d c30a 493e
00000160: 416d 043e 0fec a83d 53d6 e03e e3b7 6b3f
00000170: c409 90ba 69b8 843e d827 98be d83d bb3e
00000180: f500 873a 7706 b2bf 3ae0 253e 42b4 7fbe
00000190: 60b6 ee3e 6f34 ac3e eba1 083c 89c9 83be
000001a0: c32b 9c3f ea53 2fbe 9310 34bf 3ca0 22bf
000001b0: fb7e f1be 6406 123f 5bfe 1bbd cd98 e7bc
000001c0: 5e1d 1abd 7b8d b4bd 8429 3fbd 785e f9bd
000001d0: 7780 f5be 48b5 2ebf 39c4 1e3f 77ba bc3f
000001e0: ef4c 123f 712a 8ac0 bb61 173f b228 613f
000001f0: 36e2 66be 8f23 0f40 da03 373e d494 c03e
00000200: b327 31bf fedf c63e d655 e3bf 098c 89be
00000210: 9b9e cb3d 39a6 6dbe 2756 cf3e cd2d 56bf
00000220: 43a2 16bf 9ee8 7abf 0e5b 34be 7dbd 21bf
00000230: 23bd c53f db36 44bf 5032 abbf 71fb 4ebf
00000240: 8637 1c40 9c66 0abf fdfe 99be d369 0bc0
00000250: 524c 9b3f fc70 28bf 066e 75bf 1e58 763b
00000260: ce26 78bf 5fd8 133e ec11 9b3d 9034 cdbd
00000270: 10b7 f5bf f9c7 e83f 5999 5ebf d3df 493f
00000280: fa94 373e cd97 1a3f dd40 cfbc ca77 013f
00000290: 62c9 55be 13ce d1be 3f66 ea3e d8b7 8abd
000002a0: c4ef 10bf 108b 223f eda3 c3be 8720 0a3d
000002b0: 892a 21bf deb5 3dbe aefa b93b 94c5 8cbf
000002c0: 1375 c33e 7a1c 6dbe 1f0e c83f b1b0 a4bd
000002d0: 868f 96be c616 b93e 75d6 9d3e 21a0 9e3e
000002e0: 22d0 d33f 00e9 b2bd b055 693e 28d2 343f
000002f0: 3be6 7dbd c456 10bf cef5 32bf 0c04 353b
00000300: 7ce1 b83e 1242 84bd c3dc 1ebd 1685 ab3d
00000310: 47b5 343e 5e44 c1bf 9a62 303e 2256 833d
00000320: 384a 453f 4a80 d63e d5a4 acbf 993d 143f
00000330: 9f26 0abe cca3 87bf ef8e 843c 96c6 d43d
00000340: 43be 0b3e d92e 17bf 9e5f 65bf 7889 22bf
00000350: d82b 41bf d05a 83be ef85 b03d 833e 38bf
00000360: 76bc 9bbe 7f25 a23e 6e4a 10c0 f9fc 8cbb
00000370: bd5a 923e 170f 913e b50c 06bf 86f5 fa3e
00000380: be73 61bf 4b25 d0bd 18e2 fc3e a853 4c3f
00000390: 77fd be3f bf4b 10be bc42 be3e 4438 8cbe
000003a0: 9d04 a03d 2bb8 06bf e1e7 c03e e3d9 d93d
000003b0: 9a68 d2be 8c84 2e40 9c75 a6be 0150 853e
000003c0: d5d3 8bbc d890 453f bb80 593f 6124 a33e
000003d0: 1128 633d 83ff b9be e54b b4be 22bc 09bd
000003e0: b888 af3d 105a c03e f7fe d73d f110 4a3c
000003f0: 9d08 8e3e 141a d23e 162f 27be 2f7a e93e

sequential/dense_2/MatMul f4 [10, 20]
-4.071637 -0.48589662 0.9904013 0.9944865 -1.1068051 0.08315605 -0.3348948 -0.75721043
-2.0883117 -0.2974244 0.9903354 0.31356397 -2.370881 -0.16829602 0.47138157 0.36737
-0.031257138 0.021679185 0.2511442 0.09497168 1.5021689 -0.4841503 0.4990404 1.1359793
-1.9088023 -1.3646811 0.8784391 -0.20632395 -0.49521127 -1.5250936 1.7215326 0.52203465
0.26755664 1.6036173 1.8041143 0.9121262 -0.23600282 0.9322206 -0.45058072 1.6489191
-0.05423385 0.09611201 -0.17729804 0.60355926 -0.68139863 -1.4850138 -0.8704561 -1.4569509
-0.4363829 0.1022267 0.6544767 0.12635139 0.17838414 0.58018523 0.6842887 0.44912884
-0.92678016 1.9536531 -0.24353126 0.46543235 0.9213937 0.16256884 -0.59875804 0.8524032
-0.31647032 -0.07028919 1.0918924 -0.49963555 -0.09722731 -0.999627 -0.3840176 0.037966266
0.023783252 0.5790983 3.2396936 -3.608981 -0.75759625 0.14101098 -0.36106297 0.82735175
-0.7604376 0.836026 -2.7146828 2.699299 -1.3696157 0.22464007 -1.1709696 -0.483659
0.18314032 1.4713326 1.7802001 2.2820277 0.09174435 -1.2761836 -1.2961828 1.1580064
0.29587844 -1.3949493 0.9927366 -1.396755 1.0564729 -0.71750206 0.85086924 0.60751355
0.71751595 -0.49125907 0.7289659 -0.30075192 -0.84207016 -2.1470044 0.3802292 -0.49014184
-0.16722035 1.2709318 4.935728 0.6291902 -0.3538399 1.227933 -0.66751766 1.1290414
0.7610745 -0.219759 -0.034290902 -0.39047807 -1.3215632 -0.7051926 0.1806591 -0.105327345
-0.73201084 -0.76840657 0.08679138 -0.074157104 0.13740695 -0.10200004 1.5023099 -0.34795743
-0.3209729 0.6298773 -2.6244283 -1.8160542 -1.5459934 1.598461 0.21248642 0.8661498
1.2676666 0.1961179 -2.1708622 -0.46944118 -0.3146596 4.665989 0.52442765 -1.7187334
-0.87808913 -0.9397912 -1.9590986 -2.1327689 -1.9488944 -0.2753485 2.8894968 0.23178758
0.5552442 -1.8567423 -1.9838779 2.625676 -1.2661817 0.67430604 -1.1382638 -0.39632535
0.4452681 1.1308302 3.204853 -1.3428963 6.940982 -2.3876195 -1.0664246 -2.5859523
-0.22963545 -1.0976274 1.389965 -0.3320487 -0.7746999 -0.33867544 0.8789026 1.2366884
-1.0498157 -0.9283778 0.4274979 -0.11336976 -1.345713 -4.7753386 -0.8369218 -0.14767525
-1.7452154 1.4111104 6.547675 -0.3502708 -0.13798429 2.1689436 0.23272614 0.6206688
00000000: da4a 82c0 71c7 f8be f18a 7d3f ab96 7e3f
00000010: caab 8dbf b84d aa3d 5577 abbe 8bd8 41bf
00000020: e6a6 05c0 0348 98be 9f86 7d3f 758b a03e
00000030: 84bc 17c0 cb55 2cbe ed58 f13e ec17 bc3e
00000040: 7c07 00bd 8c98 b13c f995 803e 8380 c23d
00000050: 1247 c03f 8ce2 f7be 3982 ff3e c567 913f
00000060: a253 f4bf dfad aebf 63e1 603f 9646 53be
00000070: 558c fdbe 4436 c3bf 2e5b dc3f 10a4 053f
00000080: 2ffd 883e 5543 cd3f 38ed e63f 1a81 693f
00000090: b9aa 71be 02a6 6e3f 84b2 e6be c80f d33f
000000a0: 5024 5ebd 60d6 c43d 9e8d 35be dc82 1a3f
000000b0: 2470 2ebf ef14 bebf 36d6 5ebf 5e7d babf
000000c0: 946d dfbe 3b5c d13d c98b 273f 4262 013e
000000d0: 55aa 363e 0587 143f 8b2d 2f3f 37f4 e53e
000000e0: 7741 6dbf 4e11 fa3f 4260 79be 264d ee3e
000000f0: 75e0 6b3f 7278 263e 3548 19bf 1937 5a3f
00000100: 6608 a2be c7f3 8fbd 21c3 8b3f 3bd0 ffbe
00000110: 1d1f c7bd 8ee7 7fbf f49d c4be 8482 1b3d
00000120: 18d5 c23c c93f 143f 2457 4f40 8bf9 66c0
00000130: d4f1 41bf 2f65 103e 3fdd b8be 53cd 533f
00000140: 0aac 42bf cd05 563f 5dbd 2dc0 51c1 2c40
00000150: 914f afbf 0c08 663e 55e2 95bf 27a2 f7be
00000160: 2389 3b3e a054 bc3f 99dd e33f be0c 1240
00000170: 76e4 bb3d fc59 a3bf 51e9 a5bf 8e39 943f
00000180: 617d 973e b38d b2bf fc23 7e3f dec8 b2bf
00000190: 813a 873f 37ae 37bf 91d2 593f 0286 1b3f
000001a0: 20af 373f 4f86 fbbe 829d 3a3f 28fc 99be
000001b0: e991 57bf 8568 09c0 67ad c23e dff3 fabe
000001c0: d03b 2bbe e5ad a23f 7cf1 9d40 9c12 213f
000001d0: 812a b5be e92c 9d3f 70e2 2abf 6e84 903f
000001e0: c7d5 423f 8108 61be 9e74 0cbd beec c7be
000001f0: fc28 a9bf 8187 34bf b3fe 383e ddb5 d7bd
00000200: 1065 3bbf 4bb6 44bf aebf b13d aedf 97bd
00000210: 68b4 0c3e 66e5 d0bd b14b c03f 7a27 b2be
00000220: 8f56 a4be a43f 213f a2f6 27c0 7774 e8bf
00000230: 1de3 c5bf 5f9a cc3f 0a96 593e febb 5d3f
00000240: e642 a23f 21d3 483e 68ef 0ac0 985a f0be
00000250: 101b a1be c84f 9540 e440 063f 75ff dbbf
00000260: 73ca 60bf 2896 70bf bec3 fabf 497f 08c0
00000270: 5f75 f9bf 7bfa 8cbe 84ed 3840 b959 6d3e
00000280: 7c24 0e3f bba9 edbf b6ef fdbf 130b 2840
00000290: 3e12 a2bf 529f 2c3f a1b2 91bf 28eb cabe
000002a0: 2efa e33e 0bbf 903f 501c 4d40 07e4 abbf
000002b0: 861c de40 c2ce 18c0 9a80 88bf 3e80 25c0
000002c0: 8e25 6bbe 0e7f 8cbf 60ea b13f 4a02 aabe
000002d0: bc52 46bf de66 adbe c3ff 603f ce4b 9e3f
000002e0: 5c60 86bf 2baa 6dbf 01e1 da3e 682e e8bd
000002f0: 5340 acbf 93cf 98c0 8240 56bf 2e38 17be
00000300: 3863 dfbf 449f b43f 8e86 d140 b256 b3be
00000310: c14b 0dbe f9cf 0a40 c34f 6e3e 27e4 1e3f

sequential/dense_3/MatMul f4 [5, 10]
-3.6851203 -0.6707994 -0.94613755 -0.4342792 0.00016839331 0.12838857 -2.6890612 -1.2838881
-4.09695 1.4809324 3.207833 -0.52553767 -2.8049376 -2.7218552 0.5481697 -4.437163
0.44897407 -0.5159213 -0.23994689 -3.945568 3.3657598 -2.3335247 -0.3345908 0.13537273
-1.8273909 -3.219386 -0.42589408 2.2950609 -0.004614206 -3.6908658 1.9727823 0.9326314
3.4273286 2.9829068 -1.6383804 1.6920877 -0.010219686 1.8679653 -4.3513465 2.666446
0.14750536 -0.07992151 -3.1349635 0.6974433 0.27215642 -2.9423163 0.857235 -5.012203
-0.1742164 -8.229168
00000000: 03d9 6bc0 82b9 2bbf 1236 72bf d859 debe
00000010: bc92 3039 4b78 033e 9419 2cc0 7256 a4bf
00000020: 371a 83c0 318f bd3f 234d 4d40 a389 06bf
00000030: 1984 33c0 e032 2ec0 d954 0c3f 3dfd 8dc0
00000040: eedf e53e 6b13 04bf a3b4 75be 3084 7cc0
00000050: 9c68 5740 7858 15c0 7c4f abbe 269f 0a3e
00000060: f2e7 e9bf 6c0a 4ec0 ca0e dabe 47e2 1240
00000070: c432 97bb 2537 6cc0 2184 fc3f eec0 6e3f
00000080: 5a59 5b40 f2e7 3e40 73b6 d1bf 5496 d83f
00000090: 7870 27bc 7d19 ef3f 3b3e 8bc0 0da7 2a40
000000a0: a50b 173e e3ad a3bd 3ea3 48c0 a58b 323f
000000b0: 1658 8b3e e94e 3cc0 c173 5b3f f863 a0c0
000000c0: c965 32be acaa 03c1

sequential/dense_4/MatMul f4 [1, 5]
2.9973383 1.6044225 6.0053654 -6.668291 1.9715515
00000000: 64d4 3f40 b75d cd3f f42b c040 a462 d5c0
00000010: cd5b fc3f
